{"keras_version": "2.2.4", "config": {"name": "sequential_1", "layers": [{"config": {"batch_input_shape": [null, 100], "embeddings_constraint": null, "mask_zero": false, "embeddings_initializer": {"config": {"minval": -0.05, "maxval": 0.05, "seed": null}, "class_name": "RandomUniform"}, "name": "embedding_3", "dtype": "float32", "input_length": 100, "embeddings_regularizer": null, "input_dim": 195239, "output_dim": 300, "activity_regularizer": null, "trainable": false}, "class_name": "Embedding"}, {"config": {"filters": 64, "trainable": true, "bias_constraint": null, "padding": "valid", "name": "conv1d_1", "kernel_initializer": {"config": {"scale": 1.0, "distribution": "uniform", "mode": "fan_avg", "seed": null}, "class_name": "VarianceScaling"}, "data_format": "channels_last", "kernel_regularizer": null, "bias_regularizer": null, "kernel_constraint": null, "activation": "relu", "use_bias": true, "activity_regularizer": null, "dilation_rate": [1], "strides": [1], "bias_initializer": {"config": {}, "class_name": "Zeros"}, "kernel_size": [5]}, "class_name": "Conv1D"}, {"config": {"data_format": "channels_last", "padding": "valid", "name": "max_pooling1d_1", "trainable": true, "strides": [4], "pool_size": [4]}, "class_name": "MaxPooling1D"}, {"config": {"bias_constraint": null, "name": "lstm_2", "return_state": false, "go_backwards": false, "kernel_constraint": null, "use_bias": true, "units": 100, "activity_regularizer": null, "implementation": 1, "stateful": false, "recurrent_activation": "hard_sigmoid", "recurrent_constraint": null, "recurrent_initializer": {"config": {"seed": null, "gain": 1.0}, "class_name": "Orthogonal"}, "recurrent_regularizer": null, "kernel_regularizer": null, "unroll": false, "bias_regularizer": null, "unit_forget_bias": true, "activation": "tanh", "dropout": 0.0, "kernel_initializer": {"config": {"scale": 1.0, "distribution": "uniform", "mode": "fan_avg", "seed": null}, "class_name": "VarianceScaling"}, "return_sequences": false, "recurrent_dropout": 0.0, "trainable": true, "bias_initializer": {"config": {}, "class_name": "Zeros"}}, "class_name": "LSTM"}, {"config": {"bias_constraint": null, "name": "dense_1", "kernel_initializer": {"config": {"scale": 1.0, "distribution": "uniform", "mode": "fan_avg", "seed": null}, "class_name": "VarianceScaling"}, "kernel_regularizer": null, "bias_regularizer": null, "kernel_constraint": null, "activation": "softmax", "use_bias": true, "units": 2, "activity_regularizer": null, "trainable": true, "bias_initializer": {"config": {}, "class_name": "Zeros"}}, "class_name": "Dense"}]}, "class_name": "Sequential", "backend": "tensorflow"}