{"keras_version": "2.2.4", "config": {"name": "model_1", "output_layers": [["activation_2", 0, 0]], "layers": [{"name": "inputs", "config": {"batch_input_shape": [null, 30], "name": "inputs", "dtype": "float32", "sparse": false}, "class_name": "InputLayer", "inbound_nodes": []}, {"name": "embedding_1", "config": {"batch_input_shape": [null, 30], "embeddings_constraint": null, "mask_zero": true, "embeddings_initializer": {"config": {"minval": -0.05, "maxval": 0.05, "seed": null}, "class_name": "RandomUniform"}, "name": "embedding_1", "dtype": "float32", "input_length": 30, "embeddings_regularizer": null, "input_dim": 222162, "output_dim": 500, "activity_regularizer": null, "trainable": true}, "class_name": "Embedding", "inbound_nodes": [[["inputs", 0, 0, {}]]]}, {"name": "lstm_1", "config": {"bias_constraint": null, "name": "lstm_1", "return_state": false, "go_backwards": false, "kernel_constraint": null, "use_bias": true, "units": 64, "activity_regularizer": null, "implementation": 1, "stateful": false, "recurrent_activation": "hard_sigmoid", "recurrent_constraint": null, "recurrent_initializer": {"config": {"seed": null, "gain": 1.0}, "class_name": "Orthogonal"}, "recurrent_regularizer": null, "kernel_regularizer": null, "unroll": false, "bias_regularizer": null, "unit_forget_bias": true, "activation": "tanh", "dropout": 0.0, "kernel_initializer": {"config": {"scale": 1.0, "distribution": "uniform", "mode": "fan_avg", "seed": null}, "class_name": "VarianceScaling"}, "return_sequences": false, "recurrent_dropout": 0.0, "trainable": true, "bias_initializer": {"config": {}, "class_name": "Zeros"}}, "class_name": "LSTM", "inbound_nodes": [[["embedding_1", 0, 0, {}]]]}, {"name": "FC1", "config": {"bias_constraint": null, "name": "FC1", "kernel_initializer": {"config": {"scale": 1.0, "distribution": "uniform", "mode": "fan_avg", "seed": null}, "class_name": "VarianceScaling"}, "kernel_regularizer": null, "bias_regularizer": null, "kernel_constraint": null, "activation": "linear", "use_bias": true, "units": 256, "activity_regularizer": null, "trainable": true, "bias_initializer": {"config": {}, "class_name": "Zeros"}}, "class_name": "Dense", "inbound_nodes": [[["lstm_1", 0, 0, {}]]]}, {"name": "activation_1", "config": {"name": "activation_1", "trainable": true, "activation": "relu"}, "class_name": "Activation", "inbound_nodes": [[["FC1", 0, 0, {}]]]}, {"name": "dropout_1", "config": {"name": "dropout_1", "trainable": true, "rate": 0.5, "seed": null, "noise_shape": null}, "class_name": "Dropout", "inbound_nodes": [[["activation_1", 0, 0, {}]]]}, {"name": "out_layer", "config": {"bias_constraint": null, "name": "out_layer", "kernel_initializer": {"config": {"scale": 1.0, "distribution": "uniform", "mode": "fan_avg", "seed": null}, "class_name": "VarianceScaling"}, "kernel_regularizer": null, "bias_regularizer": null, "kernel_constraint": null, "activation": "linear", "use_bias": true, "units": 2, "activity_regularizer": null, "trainable": true, "bias_initializer": {"config": {}, "class_name": "Zeros"}}, "class_name": "Dense", "inbound_nodes": [[["dropout_1", 0, 0, {}]]]}, {"name": "activation_2", "config": {"name": "activation_2", "trainable": true, "activation": "softmax"}, "class_name": "Activation", "inbound_nodes": [[["out_layer", 0, 0, {}]]]}], "input_layers": [["inputs", 0, 0]]}, "class_name": "Model", "backend": "tensorflow"}